models/epoch_20.pt (torch, 885626 bytes, 14 tensors)

_orig_mod.conv1.weight f4 [32, 1, 3, 3]
00000000: 47d6 c63d 064d 25bd 0d24 973d 1150 21be
00000010: 0c11 98bd 474d 68bb 1618 18be 0b42 583c
00000020: f0bd 9e3e 5e1c d5bd b5d7 8c3d 1c05 b63e
00000030: 5ede ab3d 73c9 3abe 2667 38be ebf2 8ebe
00000040: 2660 913c 1331 3b3a 8b5c 07be 2dc3 62be
00000050: f48e 613e 91e0 373c 3c51 ebbc 06cd 70be
00000060: 338f 85be 5916 963e cb21 8cbe 946c 9dbe
00000070: 58c2 693c 3c67 dbbd f941 99bc 439b 743e
00000080: cce5 3fbc ec0e 0a3e 75b1 e53d d159 193e
00000090: a1d4 4d3e d809 9b3e ab1c 1a3e 719f 73be
000000a0: 3a3c 8a3d e82c 85be 8e93 ce3d 7247 c6bd
000000b0: c133 8cbe 0eae 9d3e 9ff4 3b3e b078 bdbd
000000c0: e8c4 9b3c 697d 783e 5241 00be 2077 b2be
000000d0: 7906 a6be dafd 883e 1379 dcbd 5396 2bbe
000000e0: df59 b8bd f492 0cbe 0a3f 383d 7626 30be
000000f0: 4edf 82be 5b14 9c3e 9807 7abd d252 05bd
00000100: 1cb6 a3be 94ad 39be b1b2 72be afac f53d
00000110: de03 92be 6522 a3be 14ab 79be 37aa 3bbd
00000120: 4b5f 88be a48a 8f3e bc39 853e 12f6 0abe
00000130: 05d8 6c3e 9b09 403e 7434 393c 4573 2c3c
00000140: 2e5d b43e 0de8 a23e aa32 0a3e fb5a 0b3d
00000150: fc0d dc3d 59fd 9abd a12e 653e 2537 8d3e
00000160: 35d6 0bbe 3f87 9e3d 44fb cd3d bf13 72be
00000170: 30d7 5ebe 6d0a 9b3e 32bf dbbb ca2a 3abe
00000180: 4283 1b3e 3278 82be 7ce7 dcbb 5fb6 5ebe
00000190: 4f0c 2d3e ccf8 353d 7bfc c4bd c8be 30be
000001a0: 1715 d43c a61e 4dbe 6db1 62bb 25c8 88be
000001b0: 5547 5abe eb8f 92bc ef09 6d3e 5aac 8b3e
000001c0: 6ced 60bd 37cd 4fbe 8520 94be 7093 8ebd
000001d0: a9a0 76bd 3724 143e 8f8e bfbd 572a 7e3d
000001e0: a0cd 103e a0a5 383d 0079 8fbe 3041 1bbc
000001f0: adf7 9abe c746 0a3c 6df5 783d c05f 023e
00000200: 492a d63d 6bd8 f63d 53da ba3c 931e 793e
00000210: b5ed cc3d 0c58 833e d2dc 94bd eb09 49bd
00000220: d039 763e 0c52 82be 6f05 e1bd 04e0 82be
00000230: d325 70be 806a c8bd b84d 0ebc c75b 81be
00000240: 14c6 9d3e 48ea 0c3e 4b8c 153e 0867 833e
00000250: 8b80 8e3e a798 5dbd dca2 7bbe d0e0 8a3c
00000260: 196b 213b bc57 dbbd c111 25bc 7fe0 963e
00000270: 9112 533d e84a 833d 2876 883e 2b58 9a3e
00000280: b39b d0bd 5472 2a3e 4403 82be bf56 d9bc
00000290: 94e0 ed3d 7d31 ddbd 63ad 923e e5b3 553e
000002a0: 63f1 8cbd a86a ddbd 7a71 013e d0c9 6ebd
000002b0: c1c6 a2be 9c89 7fbe e6ab 833e b08e 433d
000002c0: b054 833e 92b0 9d3e 507d 8a3c a8cd e23d
000002d0: f345 193e b986 dcbd 2ad4 453e cf0f 12be
000002e0: 8eea 0d3c 8835 0f3d d72d 0abe bfc6 9cbe
000002f0: 6b37 863c cb87 27be 2199 3e3e a32f 11be
00000300: 6d9a 7dbe 8416 0cbd 3c1a e93d 1afc 27bd
00000310: 9943 9f3e 7412 adbd 5b58 18bc 1b6f 64bd
00000320: 2d44 6fbe 8328 babe 8402 7f3d 8c66 04be
00000330: f4cd a4be 6348 953e 2235 70be b60c 12be
00000340: 0228 693d 682a 52bd 6f40 8c3e d4b3 f43d
00000350: f12a 98be a441 57be d8ba a9be 8335 753e
00000360: a683 c73c b97e 1ebe 16b4 6cbe b2af 5ebe
00000370: 75fa 93bd ac43 8cbe 9af4 a33a 9b9a 1e3e
00000380: b9f4 ab3e 0b1c 6fbe 6858 c23d 53d0 b0bd
00000390: c6b6 423e 9774 863e 0530 483e 6038 abbe
000003a0: 1ad5 32be bc8c 4fbd 97e9 59be 6d7e c23b
000003b0: 1edb 60be fb21 96bd dcdb db3b 0fd5 ffbd
000003c0: d451 31be 3feb 02be 5665 8bbd a0cd f23d
000003d0: b99e 653c 0001 323e 9a45 443e b54e 513e
000003e0: 1786 743c 09ba e6bb 9334 43bc 86c9 373e
000003f0: 538e 8fbe 3826 84be 4297 97be f4e7 11be
0.09708839 -0.04035666 0.07379923 -0.15753199 -0.074251264 -0.0035446452 -0.14852938 0.01319934
0.31004286 -0.10405801 0.0687708 0.35550773 0.083920226 -0.1824091 -0.18008098 -0.27919707
0.017746042 0.00071407965 -0.13218896 -0.22144766 0.22027189 0.011222974 -0.028725259 -0.2351571
-0.26085815 0.29313925 -0.27369532 -0.307469 0.014267527 -0.1071305 -0.018708216 0.23887353
-0.011712503 0.13482255 0.11215488 0.14975668 0.20100643 0.30280948 0.15049998 -0.23791291
0.067497686 -0.26010823 0.100867376 -0.09681596 -0.27383235 0.30796856 0.18355034 -0.09251535
0.01901479 0.2426659 -0.12524918 -0.3485651 -0.32426813 0.26756173 -0.107652806 -0.16756563
-0.090015166 -0.13727933 0.044981994 -0.17202172 -0.25560993 0.3048428 -0.0610424 -0.032549687
-0.31974876 -0.18132621 -0.23700978 0.119958274 -0.28518575 -0.31862178 -0.24381667 -0.045816626
-0.26635203 0.28035462 0.2602061 -0.13570431 0.2312928 0.18753664 0.01130401 0.010525529
0.3522734 0.31817666 0.1349589 0.034022313 0.10744855 -0.075678535 0.22381069 0.27581134
-0.13655932 0.0774064 0.10057691 -0.23640345 -0.21761775 0.30281392 -0.006706142 -0.18180385
0.1518679 -0.25482327 -0.0067414623 -0.21749257 0.16899227 0.044426724 -0.09618469 -0.17260277
0.025888963 -0.20031223 -0.0034590617 -0.26715198 -0.21316274 -0.017890891 0.2314832 0.2727993
-0.054913923 -0.20293127 -0.2893106 -0.06961715 -0.06021181 0.1446694 -0.09353363 0.062052097
0.1414094 0.045079827 -0.28022003 -0.009475991 -0.30267087 0.008439726 0.06078093 0.12731838
0.10457284 0.12052997 0.022809183 0.2432807 0.100062765 0.25653112 -0.07268681 -0.049081724
0.24045491 -0.25453222 -0.109873645 -0.25561535 -0.23451929 -0.09785938 -0.008685522 -0.25265333
0.30815184 0.13761246 0.14604299 0.25664544 0.27832446 -0.05410066 -0.24573845 0.016952902
0.0024630486 -0.107100934 -0.010075034 0.29468152 0.05153138 0.064107716 0.26652646 0.30145392
-0.10185947 0.16645175 -0.25393116 -0.026530622 0.116151005 -0.10800455 0.2864791 0.20869406
-0.06881978 -0.10811359 0.12640944 -0.058297932 -0.31792262 -0.24954838 0.25717086 0.0477435
0.2565055 0.30798775 0.016905457 0.11074382 0.1496809 -0.10767884 0.19319215 -0.14263843
0.008661879 0.03496316 -0.13494049 -0.3062038 0.016383847 -0.16360395 0.18613102 -0.14178328
-0.2476594 -0.03420116 0.11381957 -0.041011907 0.3110626 -0.08450785 -0.009298409 -0.05577002
-0.23365851 -0.36359033 0.06225826 -0.12929744 -0.3218838 0.2915679 -0.23457769 -0.14262661
0.05692292 -0.051309973 0.2739291 0.11948362 -0.29720262 -0.21021134 -0.33150363 0.23946194
0.024354767 -0.15478028 -0.23115572 -0.2174671 -0.07225505 -0.2739538 0.001250881 0.15488665
0.33585146 -0.23350541 0.094895184 -0.08633485 0.19015035 0.26260826 0.19549568 -0.33441448
-0.17464104 -0.050671324 -0.21280514 0.0059354813 -0.21958587 -0.073307 0.006709559 -0.124918096
-0.17316371 -0.12785052 -0.06806438 0.11855626 0.014014893 0.17383194 0.19167176 0.2044018
0.014924548 -0.00704122 -0.01191439 0.17947969 -0.28038272 -0.2581041 -0.29607588 -0.1424864

_orig_mod.conv1.bias f4 [32]
00000000: 5523 183d b65d 1b3e 3dda 003e c802 45bd
00000010: e810 963e 2c16 54be 483f 523e c701 093e
00000020: ea5b 18be fd53 bcbd 8001 88be 56ee f73d
00000030: e084 e5bd 72cc 84bd 4f25 62bd 5920 2bbe
00000040: 5362 513e 0b75 a73e a41b 8d3e f4d0 383e
00000050: ac99 043d 0b31 efbb dae4 003e f70d 043e
00000060: ae63 7b3e 4366 373d 62bc a33c 52ca 87bb
00000070: da87 26be c2c7 d83b 94b2 e7bc feb9 dfbd
0.03714307 0.15172467 0.12583251 -0.048098356 0.29309773 -0.20711583 0.20531952 0.13379584
-0.14878812 -0.09195707 -0.26563644 0.12106006 -0.112069845 -0.06484307 -0.05521136 -0.16711558
0.20447664 0.32706484 0.2756015 0.1804846 0.032373115 -0.0072995475 0.125873 0.12895952
0.24549744 0.04477526 0.019987289 -0.0041439915 -0.16262761 0.00661561 -0.028283395 -0.10924147

_orig_mod.bn1.weight f4 [32]
00000000: 1fb8 803f 2d7c 833f bf00 843f d9d0 7c3f
00000010: 05c8 803f 983d 7b3f b6e9 833f 8831 823f
00000020: 9296 7e3f 242b 7a3f e25f 853f 9216 873f
00000030: 9244 823f 7b2b 823f b32d 7c3f 9f84 853f
00000040: dbba 783f cf23 7e3f a012 7b3f c86f 813f
00000050: 4cf1 7d3f 23bc 743f 820a 7d3f 0b72 833f
00000060: a8c2 863f 73cf 783f ce7f 823f a73a 7c3f
00000070: 0ed6 823f daa8 7c3f 1d0c 853f 493e 853f
1.0056189 1.027227 1.0312728 0.98756176 1.0061041 0.9814086 1.0305698 1.0171366
0.994485 0.9772208 1.0419886 1.0553763 1.0177176 1.0169519 0.9850723 1.0431098
0.9716012 0.9927339 0.98075294 1.0112238 0.99196315 0.95599574 0.9884416 1.0269178
1.0528154 0.9719154 1.0195253 0.98526996 1.0221574 0.9869515 1.0394322 1.0409633

_orig_mod.bn1.bias f4 [32]
00000000: 77fa 2abc 3c5f dfbc fec3 b13b 9eeb 753d
00000010: ce3a f0bc c95c 9abc e94a 6fbc 0171 c23c
00000020: 39e4 ef3b c143 12bc 123c 913c 6d59 0f3c
00000030: b5c9 bbbc 4a72 67bc 224a a0ba ce08 d23c
00000040: 828d 083c 36cb 013b 1f80 8d3c e3e2 bebb
00000050: 946a dcb8 1e0d 85bc d30a f0bb b76a 79bc
00000060: a70f 56bc 71ca 04bd e55e 113c 656d d73c
00000070: 11a3 8ebc f0eb a7b9 ceea e93c 12ad 81bb
-0.010435692 -0.027267091 0.0054249754 0.060039155 -0.029324915 -0.018843072 -0.014605262 0.023735525
0.0073209074 -0.008927287 0.01772884 0.008749348 -0.02292333 -0.01412637 -0.0012229125 0.025638964
0.008334519 0.001980496 0.017273007 -0.005825387 -0.00010510269 -0.016241606 -0.007325509 -0.015223197
-0.013065255 -0.032419626 0.008872722 0.02629728 -0.01741174 -0.0003202851 0.028554346 -0.003957399

_orig_mod.bn1.running_mean f4 [32]
00000000: 1af6 a03a 7b45 9f3e 2c1c 0d3f d34b 52be
00000010: 87ae a83e fa6e 9bbe d702 233f c7c6 983f
00000020: fe06 4cbf 1a0d 3dbf 2d69 a3bc 8f0c 1c3f
00000030: c367 253e 1348 0f3e f8ab 39bf c951 093f
00000040: 1db9 c9be 122d 9bbe 4e3c 103e 5d60 a0bd
00000050: af8e 773e f260 533d a965 4b3f c59d b83e
00000060: 0364 0e3f 3783 d73d fd7a 303f 8d93 1cbf
00000070: 1a21 ca3e b479 1abe 55cb 413f 59fa c23e
0.0012280375 0.31107697 0.5512111 -0.20536737 0.32945654 -0.30358106 0.6367621 1.1935662
-0.7969817 -0.73848116 -0.019947613 0.6095666 0.16152863 0.13992338 -0.7252803 0.5364042
-0.39399043 -0.30307823 0.14085504 -0.0783088 0.24175523 0.051606126 0.79451996 0.3605787
0.55621356 0.10523074 0.68937665 -0.61162645 0.3947838 -0.15085489 0.75700885 0.38081625

_orig_mod.bn1.running_var f4 [32]
00000000: 108e 2b3d 1551 6e3d aec1 cc3d 7ff2 a63d
00000010: 2ba8 e73d 8ad0 b53d 3636 f53d b530 183f
00000020: 274c b33e 57eb 6c3e 1841 023e 24e9 123e
00000030: bd8f 733d ad4e 973d 6883 793e 18fe 973e
00000040: 396a 833e 1ef7 7b3e cca9 b83d fbfe 153e
00000050: 9a2e 953d 6f5f 1a3d 5b14 7f3e 57c0 4e3d
00000060: f548 0f3e 8b83 463d dbcb 6a3e 0a4c 463e
00000070: e05a 6c3e e639 223d 5a83 a83e 4f7d 5e3e
0.04188353 0.058182795 0.09997879 0.08151721 0.11311372 0.08877666 0.119732305 0.5944932
0.35019037 0.2313665 0.12720144 0.14346749 0.05946325 0.07388053 0.24366534 0.29686046
0.2566698 0.24605986 0.09016761 0.14648049 0.07284279 0.03768867 0.24910109 0.0504764
0.13992675 0.048465293 0.22929327 0.19364944 0.23081541 0.039605998 0.32912713 0.21727489

_orig_mod.conv2.weight f4 [64, 32, 3, 3]
00000000: 2eaa ea3b 826e 163d 6d50 f9bc 4fe3 c5bc
00000010: 9d77 c83c 404e bdbc cbf2 5abc 35d5 43bc
00000020: 5384 a33c 527f 033c f35d 2c3c 9ee6 5cbd
00000030: 80a7 2f3d 21bf 223d c79c 89bd 0c2a bf3c
00000040: 090a e83a 2e69 423d 0f5b 733b 0399 88bd
00000050: 3c22 84bc 195c cf3a c90c 633d 005e a5bc
00000060: 928b d639 85b7 fe3c 34cd aebb b21a 493d
00000070: 4a2f 27bd d496 46bd a5fa 26bd b353 17bd
00000080: 8534 97bb 1380 5e3d 9c99 883d 259d 3b3d
00000090: 2b5d c53c 3704 253d fc76 013d a6a4 5abd
000000a0: 0ea9 b03c 600a cebc 1e77 263d ea14 98bd
000000b0: e88e 65bd 9152 b2bc 8591 ab3c bd5f 6c3d
000000c0: a8e8 25bd 1d86 863c 8b2e 72bc 2361 bd3c
000000d0: ab6d 9f3c c923 41bd 55be 23bd f0dc 103d
000000e0: fa22 d3bc 0d2a 6c3d c8a1 81bc fa97 e63c
000000f0: 3778 213b 6a75 4c3d 3809 3b3d 4697 5dbd
00000100: c867 96bc 6f37 163d b8a3 e4bb f2c3 593d
00000110: 9bab fcbb dae1 053d d9fb 29bd b615 3e3d
00000120: 7519 0d3d e544 aabb afed 2fbd 8f4e 013b
00000130: f0c4 5fbd ee11 493d e0fa aebc 2e6e 3e3d
00000140: 8c6a ec3c c6a8 24bd 7f64 3b3d 3ffb 7b3b
00000150: 390f fabc c7fa 6b3d 1d83 64bc 81ad 2dbd
00000160: 8a2f f73b 4b84 e53c 2659 e03b 4b0f 0e3d
00000170: a326 84bc cc20 773c 174e dbba 5547 40bd
00000180: de41 42bd 3525 8bbd 8af6 4b3d 73ca 163d
00000190: 1e3f 8bbc 4f90 423d b183 3f3c f1e3 fb3c
000001a0: b1ea a3bc 2ef8 adbc d3a4 9bba 3b12 80bd
000001b0: 5564 89bc ff6e 22bd 20c8 2d3d f8dd 043c
000001c0: 4f1d 7fba 1173 ea3b 6aa8 6fbd ae40 99bc
000001d0: c3f6 25bd 83df 2e3d 676a 89bc 89b5 953d
000001e0: 0e68 b5bb b637 193d 1c4a 0fbd f975 ae3c
000001f0: 0305 25bd c4aa a3bb 1822 f8bc 059b 24bc
00000200: 2ee5 3e3d 18e8 45bd 79e7 1e3d b9cb 73bc
00000210: ef5a 103c fde0 103d 1b2b 01bd fd56 9a3b
00000220: 4910 b33c 3286 293b e7f9 0b3d 4d3f 3c3d
00000230: c70b 753c fa01 ac3b 432e 203d 1947 f4bc
00000240: 29ec 55bd b38b 1a3d 5087 5a3d 04e8 8cbc
00000250: 3681 5e3d 08b2 f2bb 8d3f 92bd cc3f 443d
00000260: 0499 36bc 1126 54bd 6ac1 02bd 3b00 19bd
00000270: 69e8 a33c 5e4b 023d ffd7 183d f862 a1bc
00000280: 43ac 433d 24a0 7a3d 6d60 0fbd 8137 31bc
00000290: f062 d73b 3d77 c73c 36aa d3bc 915b d3bc
000002a0: 722d ac3c 68ef 223d 3197 6a3b 6ac6 a0bd
000002b0: 3b3f 9fbd b144 8cbd ce09 d83c c1e0 c9bc
000002c0: 5b64 1c3d 4b36 35bd a13a 6f3c 9138 50bc
000002d0: 799d 99bc 7693 9d3c 027c 5b3d 3cfc 3d3d
000002e0: d47c 2fbd 958a 48bc f314 c5bc 1818 b93c
000002f0: 8b02 7bbb 9b4b a5bd c2e1 a4ba 69fd 45bc
00000300: cb76 a8bc 6e76 ddbc 61d5 853d 2aba 833d
00000310: bb2c 383d 0031 e23b 8cd9 19bd 78a1 5bbc
00000320: 7614 503d c832 9a3c d282 8f3c 36d2 603d
00000330: f458 7f3d ed64 c7ba 0a84 11bc 1242 5c3d
00000340: 2834 6cbd bde7 15bd b7db 1a3d fe0a fa3c
00000350: 59a1 873d 9232 c63c 1fde 69bd 0977 8b3c
00000360: 42ce 9cbc f955 98bc 7ba3 afbb 157c 333d
00000370: bbd0 1ebd 7087 883d ce2d ca3c a81b 1f3d
00000380: b73a a23c 60b0 553c 233d 3cbb cfd7 e43c
00000390: 9b03 0a3d 6c75 cbbc 4519 f1bc 8cf5 2dbd
000003a0: ff33 7e3c 7c2d 1bbd 8fac e3bc 5355 1e3d
000003b0: c00f 3ebd 89aa 423c 9a76 d6bc 44c3 ffbc
000003c0: 1994 4f3c 5efb 29bd 72f2 bd3b 78d4 c43c
000003d0: ddd5 263d 45a0 e53c bc03 89bc ef08 683d
000003e0: 3982 6fb9 bddd fb3c 83de 063d 4463 f53c
000003f0: 46a0 c03c e34a febc eee8 64bd 5258 82bc
0.0071614003 0.036726482 -0.030433858 -0.02415624 0.024471099 -0.023108602 -0.01336355 -0.011952688
0.019960558 0.008025961 0.010520446 -0.05393087 0.04288435 0.039733056 -0.06719356 0.02333548
0.0017703186 0.04746359 0.0037133133 -0.0666981 -0.016129605 0.0015820294 0.055432115 -0.020186424
0.0004092125 0.031093368 -0.0053345207 0.049097724 -0.040816583 -0.048483685 -0.040766377 -0.036945056
-0.004614415 0.05432136 0.06669924 0.04580416 0.024092278 0.040287223 0.031607613 -0.053379677
0.021564987 -0.025151432 0.040640943 -0.07425864 -0.05604449 -0.021767886 0.020943413 0.05770849
-0.04050508 0.016421372 -0.0147816045 0.023117607 0.019461473 -0.047153268 -0.039976437 0.035366952
-0.025773514 0.05765729 -0.015824214 0.02814864 0.0024638304 0.049916662 0.04566309 -0.054099344
-0.018360034 0.03667396 -0.0069775246 0.053165384 -0.0077108867 0.032686092 -0.041499946 0.046407424
0.034448106 -0.005196201 -0.042951282 0.0019730662 -0.054631174 0.049089365 -0.02135986 0.046491794
0.0288594 -0.040200017 0.045750137 0.0038449315 -0.030524837 0.057612207 -0.0139472755 -0.042401794
0.007543509 0.028017184 0.006846565 0.034682553 -0.016131705 0.015083503 -0.0016731647 -0.046943028
-0.047426097 -0.06794206 0.049795665 0.036814164 -0.01699787 0.047500905 0.0116891125 0.03074834
-0.02000937 -0.021236505 -0.0011874683 -0.06253477 -0.016771475 -0.039656635 0.042427182 0.008109562
-0.00097318453 0.0071548303 -0.05851022 -0.0187076 -0.040518533 0.042693626 -0.01677437 0.07310016
-0.005536086 0.037406646 -0.034982786 0.021296488 -0.040287983 -0.004994722 -0.030289695 -0.010046725
0.04660528 -0.048317045 0.03879497 -0.014880114 0.008810743 0.035370816 -0.03153525 0.004710077
0.021858351 0.002586734 0.034173872 0.045958806 0.014956421 0.005249259 0.03910662 -0.029819058
-0.052227173 0.037730884 0.0533517 -0.017200477 0.054322444 -0.007406477 -0.071410276 0.047912404
-0.01114488 -0.051794115 -0.031922735 -0.037353735 0.020008283 0.031810157 0.037315365 -0.019700512
0.047771703 0.06118788 -0.03500407 -0.010816456 0.0065730736 0.02434885 -0.025837999 -0.025800498
0.021017764 0.039779097 0.0035795684 -0.078503445 -0.07775732 -0.06849039 0.026371863 -0.024643304
0.038181644 -0.04424123 0.014601381 -0.012708799 -0.018751847 0.019235354 0.05358506 0.046383128
-0.042843655 -0.012240072 -0.02405784 0.022594497 -0.0038301076 -0.08071061 -0.0012579488 -0.0120843435
-0.020564457 -0.02703401 0.065348394 0.06431992 0.044964533 0.006902814 -0.037560984 -0.013405196
0.050800763 0.018823043 0.017518435 0.054887973 0.06234069 -0.0015212573 -0.008881578 0.053773947
-0.057666928 -0.036597956 0.037807193 0.03052282 0.066225715 0.024194036 -0.057096597 0.017024534
-0.01914132 -0.018595682 -0.0053600646 0.043819506 -0.03877328 0.06666458 0.024680045 0.038844734
0.019803388 0.013042539 -0.0028722964 0.027934937 0.033694845 -0.024836265 -0.029430995 -0.0424705
0.0155153265 -0.037885174 -0.027792243 0.03865559 -0.04640174 0.011881479 -0.0261796 -0.03122104
0.012669587 -0.041499488 0.005796724 0.024027094 0.0407313 0.028030524 -0.016725414 0.056649145
-0.00022841328 0.030745381 0.032927047 0.02995456 0.023513924 -0.031041568 -0.0558862 -0.015911255

_orig_mod.conv2.bias f4 [64]
00000000: 13af 453d b8d8 2f3c 8be8 35bd c7cb ccbc
00000010: bd75 3c3d f165 6cbd 5acf a93c 4c64 6cbb
00000020: 074d cf3c 4d2a 3bbc b680 9c3c 6838 2abd
00000030: 12fe 9d3c fc46 c73c e00c 78bd 2dd3 ce3b
00000040: 1a4b deba 9be2 483b 1a32 423c 8e6e 8e3a
00000050: 1f1d 55bd 3c75 d3bc d1bc 0f3d 01f5 83bc
00000060: a8f2 223d f1c8 02bc 0cc7 273a d67f 393d
00000070: bd01 e0bc 4639 b4bc c258 863d b34f 14bb
00000080: 4d90 7ebc 33a4 a93c e75a 383c 4f62 183d
00000090: b49a 0ebd 6736 1cbb 6e27 7cba 8dcc be3b
000000a0: 3fa1 1a3d c00f 3d3d c321 d93b 144a 84bc
000000b0: 20fc 17bc 3166 c43c ec46 67bc 321a aebc
000000c0: 0399 c9bb b62c 0fbd b7c6 743d a069 04bd
000000d0: 06b2 61bc 5b9b 3ebd 3fef 47bd 77d1 c13c
000000e0: 73ef 2ebd aab2 04bd df0f e4bc 5365 04bd
000000f0: 965f 0f3d 63b3 663d 6031 9a3c 3180 04b9
0.048262667 0.010732822 -0.044411223 -0.024999512 0.04601072 -0.057714406 0.020728756 -0.0036070524
0.025305284 -0.0114236595 0.019104343 -0.0415577 0.01928619 0.02432584 -0.060559154 0.006311795
-0.0016959638 0.0030652646 0.011852765 0.0010866688 -0.052029725 -0.025812738 0.03509218 -0.016108038
0.039782196 -0.0079824785 0.0006400205 0.04528793 -0.027344579 -0.021999966 0.06559898 -0.0022630512
-0.015537334 0.02070818 0.011252142 0.03720313 -0.034815505 -0.0023836137 -0.00096189126 0.005822724
0.037751433 0.0461576 0.006626339 -0.016148604 -0.00927642 0.02397451 -0.01411603 -0.021252725
-0.0061522736 -0.03495475 0.05975982 -0.032327294 -0.013775354 -0.046534877 -0.048812147 0.023659451
-0.042708825 -0.03239695 -0.0278396 -0.032323193 0.035003267 0.05632342 0.018822372 -0.00012636256

_orig_mod.bn2.weight f4 [64]
00000000: 69cd 7d3f de68 813f 646e 7c3f fe97 753f
00000010: f26d 803f e1ad 783f e33d 7f3f 1132 843f
00000020: a0cc 753f 8ffe 813f 4b5f 883f 17c1 7e3f
00000030: af4c 743f a7f8 843f e417 833f 2427 873f
00000040: c142 803f 80ef 7a3f a492 7f3f ed26 793f
00000050: 7ed2 753f a535 7d3f 8852 7f3f 1699 7d3f
00000060: 0656 7f3f c970 7b3f 2aea 833f 4d49 843f
00000070: 5c31 813f b2e4 753f 3b12 783f bf5a 7f3f
00000080: 9a94 783f 341a 793f ab21 833f 8e48 823f
00000090: 3459 7b3f 9be5 803f 8e1c 803f 8399 7c3f
000000a0: a644 803f cfa7 7a3f afa1 813f 146c 7b3f
000000b0: 4ebc 793f cdc2 753f bdd9 833f e8ab 833f
000000c0: 63bd 7f3f 3623 7d3f 920a 823f 1516 843f
000000d0: f005 783f 295e 803f 8c6f 833f 4e1c 863f
000000e0: ea04 813f 5da7 823f 5d7c 823f 2821 7f3f
000000f0: 4935 793f 79c1 773f 3b47 833f f08e 7e3f
0.99141556 1.0110128 0.9860594 0.95935047 1.0033553 0.9714032 0.99703807 1.0327779
0.9601536 1.015581 1.0654081 0.9951338 0.9542951 1.0388383 1.0241666 1.055882
1.0020372 0.980217 0.9983313 0.9732502 0.9602431 0.9890998 0.9973531 0.99061716
0.99740636 0.9821897 1.0305836 1.033487 1.0093188 0.96052086 0.9690282 0.9974784
0.9710175 0.9730561 1.024465 1.0178392 0.9818299 1.007007 1.0008714 0.9867174
1.002095 0.97912306 1.0127467 0.9821179 0.97552955 0.9600037 1.0300823 1.0286837
0.99898356 0.9888185 1.0159476 1.0319239 0.9688406 1.0028735 1.0268416 1.0477388
1.0079625 1.0207325 1.0194203 0.9965997 0.9734693 0.9677959 1.0256113 0.99436855

_orig_mod.bn2.bias f4 [64]
00000000: e8d5 3abd a7a1 e5bc 6e9d 45bd 2e41 31bc
00000010: c1ab ebbc 2836 a4bc b135 06bd 10c8 a1bd
00000020: 24c6 16bd 48a0 32bd 577c acbd b283 98bc
00000030: aadc 42bd dcfb a6bd 44f3 b4bc 74cc 15bd
00000040: 76d1 91bc 9bcd 22bd 52b0 1dbd d6c7 30bd
00000050: 5eb0 23bd 98c8 17bd 1248 6bbd 0b2a 993c
00000060: 2b25 c5bd 48e5 fcbc 785a 3bbd 8404 9cbd
00000070: b0b9 42bc 411d 23bd 9222 38bd 2166 2fbd
00000080: a763 1fbc 7c21 73bd a76d 65bd 9ca3 24bd
00000090: 3cc7 26bd d172 95bc 1df3 73bd 3d71 3cbd
000000a0: 7eb2 85bd 3517 80bc 2256 0fbd 08b5 2fbd
000000b0: eddf 7cbd 0dca f4bc 619f 80bd fc90 49bd
000000c0: e4a0 47bd 0849 97bc 8b02 1fbd f286 c5bc
000000d0: b024 1abd 4df1 2fbd 697d aebc 309f 63bd
000000e0: 379c 1dbd 8a2f 63bd d58a 1abd 9021 b0bc
000000f0: 4e15 7dbc 018c e8bc 50a7 70bd f380 54bd
-0.045614153 -0.028031183 -0.04824584 -0.010818763 -0.028768422 -0.020045355 -0.032766048 -0.07899487
-0.036810055 -0.043609887 -0.084221534 -0.018617485 -0.047573723 -0.08153507 -0.022088654 -0.036571935
-0.017800074 -0.039746862 -0.03849823 -0.04315933 -0.03996312 -0.037056535 -0.05744178 0.018696805
-0.0962623 -0.030871049 -0.045740575 -0.07618049 -0.011885092 -0.03982282 -0.044954844 -0.042822007
-0.009728349 -0.059358105 -0.056012776 -0.040195093 -0.04071735 -0.018243225 -0.059558023 -0.04600643
-0.06528185 -0.015636066 -0.034994252 -0.042897254 -0.06173699 -0.029881502 -0.06280399 -0.049210533
-0.04873742 -0.018467441 -0.038820785 -0.024112199 -0.037632644 -0.04295473 -0.021300035 -0.055571735
-0.038479056 -0.05546526 -0.037730057 -0.021500379 -0.015446974 -0.028387072 -0.05875331 -0.051880788

_orig_mod.bn2.running_mean f4 [64]
00000000: e99b c13e b512 2ebf 3f63 37be e832 83be
00000010: 22fe 913e 7ec7 37be c882 54be 575e cbbe
00000020: 30ee 853e 16bb 65be 020d 2abe 1b7c b6bd
00000030: f250 64be 9823 a13e 79de 31bf fe62 79be
00000040: 5824 1dbf 7686 a23d 3f9c c1bc 01d3 efbe
00000050: 1f77 033e fab1 81be 9774 f9bd 5f4e 9f3e
00000060: b4db a73e 9bf5 6c3e 5c5a cabd 31ec 05bf
00000070: 7f9d 15bd 2cd4 203e 858e 833d f218 b93c
00000080: f4f3 fcbd 7d70 40bf 5141 4dbc 1c23 01bf
00000090: b99b b9be ef8f f03d 401f e7be f12c ab3c
000000a0: 7c6e 933e 181d 09bf e174 7dbe 73dd babd
000000b0: 8622 3cbe 4eb2 103f 61d7 903e 8a0c c1be
000000c0: 24cd 82bd 4733 e7be 0ea4 20bf e391 99be
000000d0: 2490 f7be dabc 6a3d 518a 01be f2da a7be
000000e0: ec02 a63d 86d2 3d3e 5f43 a2be 1ef6 29be
000000f0: 7067 d43c 4e96 2e3e d059 14be 343b 8ebe
0.37814263 -0.67997295 -0.17908953 -0.25624776 0.285142 -0.17947194 -0.20753014 -0.39720413
0.26158285 -0.22434649 -0.16606525 -0.0891039 -0.22296503 0.31472468 -0.6948009 -0.24354169
-0.6138358 0.07935803 -0.023634074 -0.4684067 0.1283841 -0.25331098 -0.12180441 0.3111448
0.32784808 0.23140566 -0.09880516 -0.52313524 -0.036527153 0.15705937 0.06423668 0.022594903
-0.12351218 -0.75171643 -0.01252778 -0.504442 -0.3625162 0.11746203 -0.4514103 0.020895453
0.2879523 -0.5356002 -0.24751617 -0.09124269 -0.18372545 0.5652207 0.2828932 -0.3770488
-0.06386784 -0.4515631 -0.6275033 -0.29994115 -0.48352158 0.05730901 -0.1265042 -0.3278423
0.08106026 0.1853734 -0.31692025 -0.16597793 0.02592823 0.17049524 -0.14487386 -0.27779543

_orig_mod.bn2.running_var f4 [64]
00000000: f902 db3e 114a 833e 8a69 4e3e d9be a33e
00000010: f0e2 883e 34e9 a03e 26d9 9f3e 63da 8f3e
00000020: 5e81 6e3e 78ac 563e 25ff f53d 3848 ca3e
00000030: d148 0d3e 7a0d 523e 49f0 d23e 26b6 8d3e
00000040: c7f4 cd3e 30dd c73e 1737 783e d362 2c3e
00000050: 2e95 873e be50 583e 6757 243e 026f 903e
00000060: e936 853e 3b10 863e 6360 493e 1f31 9e3e
00000070: 3625 b43e 82c4 153f 2487 a33e f622 4c3e
00000080: 4072 013e 020a 8f3e b804 333e 5ea4 173e
00000090: 6efb 713e 51de 9c3e 41fd ff3d c7f1 1f3f
000000a0: 3f7d 423e 57e9 843e cfd2 db3e 5628 e03e
000000b0: c512 7d3e 2763 353f d4c1 453e bede 843e
000000c0: d245 893e 2006 aa3e e01e 373e 56ac 923e
000000d0: cfa8 9a3e 013a 743e 4f17 993e 27f8 3d3e
000000e0: e12f 2c3e b598 993e 1684 883e f4e8 863e
000000f0: 8cc3 5b3e 6e33 963e 7942 2c3e b69d 2b3e
0.42775705 0.25642446 0.20157447 0.31981543 0.2673564 0.3142792 0.3122036 0.28096303
0.23291537 0.20964229 0.120115556 0.39508224 0.13797309 0.20512953 0.41198948 0.2767803
0.40225813 0.3903594 0.24239765 0.16834573 0.26481003 0.2112455 0.16048966 0.28209692
0.26018456 0.26184258 0.19665675 0.3089685 0.3518464 0.5850297 0.31939042 0.19935212
0.12641239 0.27937323 0.17482269 0.14808795 0.23631069 0.30638364 0.12499476 0.624783
0.1899309 0.25959274 0.42934272 0.43780774 0.24714191 0.7085442 0.19312221 0.2595119
0.2681108 0.33207798 0.17882872 0.28647107 0.30206916 0.23850252 0.29900596 0.18551694
0.1681514 0.2999932 0.26663274 0.26349604 0.21461314 0.29336113 0.16822232 0.1675938

_orig_mod.fc.weight f4 [64, 3136]
00000000: 201a 733c 0e4a d1bb 4779 243c 3ce7 c1bc
00000010: 9d04 1abc d15b 21bc 5954 b5ba 14eb 983b
00000020: 1e61 e4bb 3b77 11bc ba0e 3e39 58ca 343b
00000030: 5e3f 96bb 9231 0ebb cc29 f23b ff02 063b
00000040: 6289 92bc 4ed5 5ebc 7e81 9e3c a2aa 70bc
00000050: 4d3f e93b 0862 91ba 48eb 04bc 126b 423a
00000060: c56f d4bc 6e8c ca3b 375e ff3b 8a1b 313d
00000070: e2e4 60bc af5f baba 9682 a83c d537 e23a
00000080: f10c dcbb 40c0 b2ba 2483 833b d355 793c
00000090: 78a5 9cbc 8b41 963c 3727 9dbb a271 09bc
000000a0: 74b1 753c 41c8 bd3c b8a5 bb3c ef07 3b3c
000000b0: f40c 483b bdf2 0cbc e781 95bc 7770 41bb
000000c0: c097 a33b 7809 03bc 2aaf 44bc bf92 4b3c
000000d0: 5bc9 4bbc fca2 f13b dca6 1e3c 1306 8a3b
000000e0: 360c 1bbc 3d5d 603b 104d 953c 3826 8a3c
000000f0: a2bb 593c e2bf 213c 3ed1 ecbb 067c a5bb
00000100: b79d 38bc e40d 673c 6cc7 443c 1cb9 64bb
00000110: 3f2d 333c 4df0 7bbb c86e 863c 9fd6 003c
00000120: 6262 653c 121c c8bc 0e67 f93c f9bd dbba
00000130: 7cc0 8e3c bf83 fcbb 52f6 0dbb 0d38 513c
00000140: 6a49 c93a 9312 093c c5a9 66bc 41eb 8cbb
00000150: 0f08 e3bb f3b1 1a39 fc7a e73b 2392 123c
00000160: 4b87 1dbb 5396 c73b c68e 40bc da85 ac3b
00000170: 2172 b2bb 3a0e c4bb 550e ffbb 3631 12bc
00000180: 1c3c 94bb 549d 1c3b b62e 74bb a53f 23bc
00000190: c800 c33b a8ee bebb d437 013b 135b 1fbc
000001a0: 1ab6 273c 9ecf 88bb d007 c03c a4da ffbb
000001b0: 0c38 a1bc 8283 913b 2563 53bc 9576 77bc
000001c0: b6a6 5cbb c5f8 b43a 1ff2 fbbb 3d9d 4e3b
000001d0: 4aec e53b 5021 c7bc 0351 8b3c 6e13 38bc
000001e0: 5b21 963c 52d1 133c 89e4 823c 5ee3 b23b
000001f0: d492 b4bb 053b a0bc e0ec 29bb e750 7a3b
00000200: 7a1a 54bc 2157 703a f315 793c afd1 bcbb
00000210: 0f45 343c 2f41 61bc 08a2 86bc 4bee ba3b
00000220: 20e6 003c 01e6 39bc c7f8 de3c 2984 c33b
00000230: e675 4fbb 985a 9a3c afeb 16bc 3043 c13b
00000240: d8a9 d4bb e601 083c 6e46 873a 94b0 2dbc
00000250: 76b2 7b3c aa47 1dbb ace0 a63b 9817 793a
00000260: 78ed 123c 96a5 5fbc 6104 ffbb d7d2 363b
00000270: a21d 03bc 5751 883b e24e 7b3b 2784 84bc
00000280: 5de6 c7bb d560 33bc 1e06 1b3c ab3c ed3a
00000290: dd54 603c 4609 93bb 8772 b1bc d78e d4bb
000002a0: 1bed c0bb 5783 a1bb 329f 3bbc 9529 783c
000002b0: c15a b3bc 4da4 f3bb 79fc 3b3c 04c6 9bbc
000002c0: 8348 f93b 2e45 223c 1dcc d53c 6d5c 86bb
000002d0: 56cb 8abc 2fa5 4bb9 9df3 c43b 9dc7 1e3b
000002e0: 8e48 28bc ffd4 80bb a72e 14bc 7db6 b8ba
000002f0: 28f7 7cbc ab0d 093c e8ca e9bc aaf7 553b
00000300: f5f7 2e3c 8ef3 833c b44e d93b 674d d2bb
00000310: 8989 813c 6623 8f3b 9848 573c cdce 8fbc
00000320: b105 e739 5151 3f3c 336b ca3c 2953 43bc
00000330: 4d3b a2ba 847a 5b3c 27aa 183c e3c2 0cbc
00000340: dcd4 f7bb 602f 47bc 9bed 40bc 1ab6 3bbc
00000350: d39e bdbb a346 353b 18ec 643c cecc 4e3b
00000360: 0712 a53c a66c 60bc db7f cb3c f21e a13c
00000370: 3d24 7cbb cea9 493c ef41 cfbb 3398 003c
00000380: 8d62 2d3c 6e9e d53a 0c4e db3c 210f c13b
00000390: 9b1a 8abc 610e 66bb a35c 63bc cd9e 41bc
000003a0: bc32 62bc 3e2d 3abb 9d49 d7bc bf64 24bc
000003b0: 1752 a6bc 9d2a 1ebc 2422 9cbb aa99 a73a
000003c0: 0296 183c 1a6b cfbb 24eb 493c 0130 62bc
000003d0: cab3 cb3b da22 63bc 1bf0 77bc 4992 ecbb
000003e0: 6c9e 27bc 3099 08bc 2959 0ebc a833 a63b
000003f0: 0176 753b 792e 83bc cc35 61bc 4929 973b
0.014837772 -0.006387002 0.01003868 -0.023669831 -0.009400514 -0.009848551 -0.0013834342 0.0046666954
-0.006969585 -0.008878524 0.00018125298 0.0027586427 -0.0045851907 -0.0021697027 0.0073902365 0.0020448563
-0.017887775 -0.0136006605 0.019348856 -0.0146891195 0.0071181417 -0.0011091838 -0.008112736 0.00074164674
-0.025932202 0.0061812913 0.0077932137 0.043239154 -0.013726445 -0.001421919 0.02057008 0.0017259071
-0.00671541 -0.0013637617 0.004013436 0.015218216 -0.01912187 0.0183418 -0.0047959345 -0.008388909
0.014995921 0.023166778 0.02290617 0.011415466 0.0030525299 -0.008602795 -0.018250419 -0.0029516497
0.0049924552 -0.007997863 -0.012004653 0.012425124 -0.012438144 0.0073741656 0.009683337 0.00421215
-0.0094633605 0.0034235262 0.018225223 0.016863927 0.013289364 0.009872409 -0.007227092 -0.005050185
-0.011268071 0.014102433 0.0120104365 -0.0034900373 0.0109360805 -0.003844279 0.016410246 0.00786367
0.014000507 -0.024427447 0.030444648 -0.001676499 0.017425768 -0.007706135 -0.002166171 0.012769711
0.0015356962 0.008366245 -0.014078562 -0.0043005054 -0.006928451 0.00014752876 0.0070642214 0.0089459745
-0.002403694 0.006090918 -0.01175279 0.00526498 -0.005445734 -0.0059831413 -0.007783691 -0.008922866
-0.004523767 0.0023897486 -0.0037259287 -0.0099639045 0.005951021 -0.00582679 0.0019717114 -0.009726304
0.0102362875 -0.0041751405 0.023441225 -0.0078080464 -0.019680046 0.004440726 -0.012902056 -0.015103956
-0.0033668703 0.0013807049 -0.007688775 0.0031526827 0.0070166932 -0.024307877 0.017006403 -0.011235101
0.018326452 0.009022074 0.015978115 0.005459233 -0.0055106673 -0.019559393 -0.0025928542 0.0038195194
-0.012945766 0.00091682567 0.015202987 -0.005762301 0.011002793 -0.013748451 -0.016434684 0.0057046763
0.007867366 -0.011346341 0.027218236 0.0059666825 -0.0031655966 0.018842027 -0.009211465 0.005897902
-0.0064899735 0.008301234 0.0010320672 -0.010601182 0.015362373 -0.0023999014 0.005092701 0.0009502112
0.00896775 -0.013650319 -0.0077825044 0.0027896666 -0.0080026705 0.004160087 0.0038346578 -0.016176296
-0.0061004595 -0.0109483795 0.009461908 0.0018099746 0.013692108 -0.0044871895 -0.021661056 -0.0064867544
-0.00588764 -0.004928987 -0.011451529 0.015146633 -0.02189386 -0.0074353577 0.011473768 -0.01901532
0.007607521 0.009904189 0.026098305 -0.0041003735 -0.016942661 -0.00019421124 0.0060104863 0.0024227866
-0.010271205 -0.003931641 -0.009044326 -0.0014092472 -0.015439786 0.008365075 -0.028539136 0.003264884
0.010679235 0.016107347 0.0066316966 -0.0064179185 0.015812652 0.0043682335 0.013139866 -0.017554665
0.00044063994 0.011677102 0.02470932 -0.011921682 -0.0012377292 0.013395909 0.009317911 -0.0085913865
-0.0075632166 -0.012157291 -0.0117754 -0.011456991 -0.0057867556 0.002766051 0.013972305 0.0031555179
0.020150198 -0.013697779 0.02484124 0.019668076 -0.0038473748 0.012308551 -0.0063249986 0.007848787
0.010582578 0.0016297826 0.026770614 0.005891696 -0.01685839 -0.0035103785 -0.013877067 -0.011817646
-0.013806041 -0.0028408314 -0.026280219 -0.010033785 -0.020302815 -0.0096537145 -0.004764812 0.0012786884
0.009313108 -0.006329906 0.012324128 -0.01380539 0.006216501 -0.01386329 -0.015132929 -0.007219587
-0.010230642 -0.008337304 -0.00868825 0.005072076 0.003745437 -0.01601337 -0.013745736 0.004613076

_orig_mod.fc.bias f4 [64]
00000000: 906c 16bc d97f 57bc 08cc 4f3c 88d6 623c
00000010: a639 2e3c 2993 b23b 8ba2 1bbc 5039 2ebc
00000020: abbb 8dbb 60fb 45bc c246 793b f85c 2fbc
00000030: 1fd7 1bbc 33bf 783b bfc5 a539 47c6 373a
00000040: b41e 823c 9a96 05bc 44f1 b5bb 0659 393c
00000050: bccc 463c 0316 a7b9 a282 8c3c 9cd4 1cbc
00000060: 4fe5 09bb fbf4 1cbc f951 733c 19b0 883c
00000070: 0bcf a23a 2e7e 903b 1397 8ebc c063 8f3c
00000080: e303 98b8 1445 88bc 9696 eabb 7ed0 21bb
00000090: 7d30 083c b5eb b43b 8c33 72bb 4896 2f3c
000000a0: 96b9 00bc e994 403c 9a54 77bc 7a40 e63b
000000b0: 2430 21bc 088d 183c 2bc7 da3b 8855 2b3c
000000c0: af80 4cba 4213 df3a 77e3 1fbb 927e 9a3b
000000d0: 88e6 ddba fe0b 1b3c 4f03 2e3b 2250 20b9
000000e0: 1337 1a3c 524b 003c f32c 47bc 22fd cc3b
000000f0: 238b 0c3b 83cc 4a3c 1ba3 2d3c 11da 223c
-0.009181157 -0.01315304 0.012682922 0.013845094 0.010633862 0.0054496718 -0.0094992025 -0.010633782
-0.0043253503 -0.012083858 0.003803656 -0.010703318 -0.009511738 0.003795576 0.00031618585 0.00070104416
0.015883781 -0.008153582 -0.0055524427 0.011312729 0.012133773 -0.00031869122 0.017152134 -0.009572174
-0.002104122 -0.009579892 0.014851087 0.016685532 0.0012421323 0.004409573 -0.017406022 0.01750362
-7.248649e-05 -0.016634502 -0.0071590645 -0.0024690921 0.008312342 0.0055212625 -0.0036956994 0.010716982
-0.007856747 0.011754253 -0.015095854 0.007026729 -0.009838138 0.009310968 0.0066765747 0.010457404
-0.0007801158 0.0017019289 -0.0024397054 0.0047147954 -0.0016929666 0.009463308 0.0026552265 -0.00015288641
0.009412545 0.007830458 -0.012156713 0.0062557617 0.0021445237 0.012377861 0.010597969 0.009939686
